…
2025-05-13 22:56:24,897 INFO    MainThread:3023899 [wandb_run.py:_console_start():2573] atexit reg
2025-05-13 22:56:24,897 INFO    MainThread:3023899 [wandb_run.py:_redirect():2421] redirect: wrap_raw
2025-05-13 22:56:24,898 INFO    MainThread:3023899 [wandb_run.py:_redirect():2490] Wrapping output streams.
2025-05-13 22:56:24,898 INFO    MainThread:3023899 [wandb_run.py:_redirect():2513] Redirects installed.
2025-05-13 22:56:24,904 INFO    MainThread:3023899 [wandb_init.py:init():1150] run started, returning control to user process
2025-05-13 22:56:26,623 INFO    MainThread:3023899 [wandb_run.py:_config_callback():1436] config_cb None None {'net_summary': "VisionTransformer(\n  (conv_proj): Conv2d(3, 768, kernel_size=(16, 16), stride=(16, 16))\n  (encoder): Encoder(\n    (dropout): Dropout(p=0.0, inplace=False)\n    (layers): Sequential(\n      (encoder_layer_0): EncoderBlock(\n        (ln_1): LayerNorm((768,), eps=1e-06, elementwise_affine=True)\n        (self_attention): MultiheadAttention(\n          (out_proj): NonDynamicallyQuantizableLinear(in_features=768, out_features=768, bias=True)\n        )\n        (dropout): Dropout(p=0.0, inplace=False)\n        (ln_2): LayerNorm((768,), eps=1e-06, elementwise_affine=True)\n        (mlp): MLPBlock(\n          (0): Linear(in_features=768, out_features=3072, bias=True)\n          (1): GELU(approximate='none')\n          (2): Dropout(p=0.0, inplace=False)\n          (3): Linear(in_features=3072, out_features=768, bias=True)\n          (4): Dropout(p=0.0, inplace=False)\n        )\n      )\n      (encoder_layer_1): EncoderBlock(\n        (ln_1): LayerNorm((768,), eps=1e-06, elementwise_affine=True)\n        (self_attention): MultiheadAttention(\n          (out_proj): NonDynamicallyQuantizableLinear(in_features=768, out_features=768, bias=True)\n        )\n        (dropout): Dropout(p=0.0, inplace=False)\n        (ln_2): LayerNorm((768,), eps=1e-06, elementwise_affine=True)\n        (mlp): MLPBlock(\n          (0): Linear(in_features=768, out_features=3072, bias=True)\n          (1): GELU(approximate='none')\n          (2): Dropout(p=0.0, inplace=False)\n          (3): Linear(in_features=3072, out_features=768, bias=True)\n          (4): Dropout(p=0.0, inplace=False)\n        )\n      )\n      (encoder_layer_2): EncoderBlock(\n        (ln_1): LayerNorm((768,), eps=1e-06, elementwise_affine=True)\n        (self_attention): MultiheadAttention(\n          (out_proj): NonDynamicallyQuantizableLinear(in_features=768, out_features=768, bias=True)\n        )\n        (dropout): Dropout(p=0.0, inplace=False)\n        (ln_2): LayerNorm((768,), eps=1e-06, elementwise_affine=True)\n        (mlp): MLPBlock(\n          (0): Linear(in_features=768, out_features=3072, bias=True)\n          (1): GELU(approximate='none')\n          (2): Dropout(p=0.0, inplace=False)\n          (3): Linear(in_features=3072, out_features=768, bias=True)\n          (4): Dropout(p=0.0, inplace=False)\n        )\n      )\n      (encoder_layer_3): EncoderBlock(\n        (ln_1): LayerNorm((768,), eps=1e-06, elementwise_affine=True)\n        (self_attention): MultiheadAttention(\n          (out_proj): NonDynamicallyQuantizableLinear(in_features=768, out_features=768, bias=True)\n        )\n        (dropout): Dropout(p=0.0, inplace=False)\n        (ln_2): LayerNorm((768,), eps=1e-06, elementwise_affine=True)\n        (mlp): MLPBlock(\n          (0): Linear(in_features=768, out_features=3072, bias=True)\n          (1): GELU(approximate='none')\n          (2): Dropout(p=0.0, inplace=False)\n          (3): Linear(in_features=3072, out_features=768, bias=True)\n          (4): Dropout(p=0.0, inplace=False)\n        )\n      )\n      (encoder_layer_4): EncoderBlock(\n        (ln_1): LayerNorm((768,), eps=1e-06, elementwise_affine=True)\n        (self_attention): MultiheadAttention(\n          (out_proj): NonDynamicallyQuantizableLinear(in_features=768, out_features=768, bias=True)\n        )\n        (dropout): Dropout(p=0.0, inplace=False)\n        (ln_2): LayerNorm((768,), eps=1e-06, elementwise_affine=True)\n        (mlp): MLPBlock(\n          (0): Linear(in_features=768, out_features=3072, bias=True)\n          (1): GELU(approximate='none')\n          (2): Dropout(p=0.0, inplace=False)\n          (3): Linear(in_features=3072, out_features=768, bias=True)\n          (4): Dropout(p=0.0, inplace=False)\n        )\n      )\n      (encoder_layer_5): EncoderBlock(\n        (ln_1): LayerNorm((768,), eps=1e-06, elementwise_affine=True)\n        (self_attention): MultiheadAttention(\n          (out_proj): NonDynamicallyQuantizableLinear(in_features=768, out_features=768, bias=True)\n        )\n        (dropout): Dropout(p=0.0, inplace=False)\n        (ln_2): LayerNorm((768,), eps=1e-06, elementwise_affine=True)\n        (mlp): MLPBlock(\n          (0): Linear(in_features=768, out_features=3072, bias=True)\n          (1): GELU(approximate='none')\n          (2): Dropout(p=0.0, inplace=False)\n          (3): Linear(in_features=3072, out_features=768, bias=True)\n          (4): Dropout(p=0.0, inplace=False)\n        )\n      )\n      (encoder_layer_6): EncoderBlock(\n        (ln_1): LayerNorm((768,), eps=1e-06, elementwise_affine=True)\n        (self_attention): MultiheadAttention(\n          (out_proj): NonDynamicallyQuantizableLinear(in_features=768, out_features=768, bias=True)\n        )\n        (dropout): Dropout(p=0.0, inplace=False)\n        (ln_2): LayerNorm((768,), eps=1e-06, elementwise_affine=True)\n        (mlp): MLPBlock(\n          (0): Linear(in_features=768, out_features=3072, bias=True)\n          (1): GELU(approximate='none')\n          (2): Dropout(p=0.0, inplace=False)\n          (3): Linear(in_features=3072, out_features=768, bias=True)\n          (4): Dropout(p=0.0, inplace=False)\n        )\n      )\n      (encoder_layer_7): EncoderBlock(\n        (ln_1): LayerNorm((768,), eps=1e-06, elementwise_affine=True)\n        (self_attention): MultiheadAttention(\n          (out_proj): NonDynamicallyQuantizableLinear(in_features=768, out_features=768, bias=True)\n        )\n        (dropout): Dropout(p=0.0, inplace=False)\n        (ln_2): LayerNorm((768,), eps=1e-06, elementwise_affine=True)\n        (mlp): MLPBlock(\n          (0): Linear(in_features=768, out_features=3072, bias=True)\n          (1): GELU(approximate='none')\n          (2): Dropout(p=0.0, inplace=False)\n          (3): Linear(in_features=3072, out_features=768, bias=True)\n          (4): Dropout(p=0.0, inplace=False)\n        )\n      )\n      (encoder_layer_8): EncoderBlock(\n        (ln_1): LayerNorm((768,), eps=1e-06, elementwise_affine=True)\n        (self_attention): MultiheadAttention(\n          (out_proj): NonDynamicallyQuantizableLinear(in_features=768, out_features=768, bias=True)\n        )\n        (dropout): Dropout(p=0.0, inplace=False)\n        (ln_2): LayerNorm((768,), eps=1e-06, elementwise_affine=True)\n        (mlp): MLPBlock(\n          (0): Linear(in_features=768, out_features=3072, bias=True)\n          (1): GELU(approximate='none')\n          (2): Dropout(p=0.0, inplace=False)\n          (3): Linear(in_features=3072, out_features=768, bias=True)\n          (4): Dropout(p=0.0, inplace=False)\n        )\n      )\n      (encoder_layer_9): EncoderBlock(\n        (ln_1): LayerNorm((768,), eps=1e-06, elementwise_affine=True)\n        (self_attention): MultiheadAttention(\n          (out_proj): NonDynamicallyQuantizableLinear(in_features=768, out_features=768, bias=True)\n        )\n        (dropout): Dropout(p=0.0, inplace=False)\n        (ln_2): LayerNorm((768,), eps=1e-06, elementwise_affine=True)\n        (mlp): MLPBlock(\n          (0): Linear(in_features=768, out_features=3072, bias=True)\n          (1): GELU(approximate='none')\n          (2): Dropout(p=0.0, inplace=False)\n          (3): Linear(in_features=3072, out_features=768, bias=True)\n          (4): Dropout(p=0.0, inplace=False)\n        )\n      )\n      (encoder_layer_10): EncoderBlock(\n        (ln_1): LayerNorm((768,), eps=1e-06, elementwise_affine=True)\n        (self_attention): MultiheadAttention(\n          (out_proj): NonDynamicallyQuantizableLinear(in_features=768, out_features=768, bias=True)\n        )\n        (dropout): Dropout(p=0.0, inplace=False)\n        (ln_2): LayerNorm((768,), eps=1e-06, elementwise_affine=True)\n        (mlp): MLPBlock(\n          (0): Linear(in_features=768, out_features=3072, bias=True)\n          (1): GELU(approximate='none')\n          (2): Dropout(p=0.0, inplace=False)\n          (3): Linear(in_features=3072, out_features=768, bias=True)\n          (4): Dropout(p=0.0, inplace=False)\n        )\n      )\n      (encoder_layer_11): EncoderBlock(\n        (ln_1): LayerNorm((768,), eps=1e-06, elementwise_affine=True)\n        (self_attention): MultiheadAttention(\n          (out_proj): NonDynamicallyQuantizableLinear(in_features=768, out_features=768, bias=True)\n        )\n        (dropout): Dropout(p=0.0, inplace=False)\n        (ln_2): LayerNorm((768,), eps=1e-06, elementwise_affine=True)\n        (mlp): MLPBlock(\n          (0): Linear(in_features=768, out_features=3072, bias=True)\n          (1): GELU(approximate='none')\n          (2): Dropout(p=0.0, inplace=False)\n          (3): Linear(in_features=3072, out_features=768, bias=True)\n          (4): Dropout(p=0.0, inplace=False)\n        )\n      )\n    )\n    (ln): LayerNorm((768,), eps=1e-06, elementwise_affine=True)\n  )\n  (heads): Sequential(\n    (0): Linear(in_features=768, out_features=315, bias=True)\n  )\n)"}
2025-05-13 22:56:26,623 INFO    MainThread:3023899 [wandb_watch.py:_watch():71] Watching
2025-05-14 02:44:43,130 INFO    MsgRouterThr:3023899 [mailbox.py:close():129] [no run ID] Closing mailbox, abandoning 1 handles.
